_________________________________________________________________
Layer (type)                 Output Shape              Param #   
=================================================================
input_1 (InputLayer)         (None, 90, 320, 3)        0         
_________________________________________________________________
batch_normalization_1 (Batch (None, 90, 320, 3)        12        
_________________________________________________________________
conv2d_1 (Conv2D)            (None, 43, 158, 3)        228       
_________________________________________________________________
batch_normalization_2 (Batch (None, 43, 158, 3)        12        
_________________________________________________________________
conv2d_2 (Conv2D)            (None, 20, 77, 24)        1824      
_________________________________________________________________
batch_normalization_3 (Batch (None, 20, 77, 24)        96        
_________________________________________________________________
conv2d_3 (Conv2D)            (None, 8, 37, 36)         21636     
_________________________________________________________________
batch_normalization_4 (Batch (None, 8, 37, 36)         144       
_________________________________________________________________
conv2d_4 (Conv2D)            (None, 6, 35, 48)         15600     
_________________________________________________________________
batch_normalization_5 (Batch (None, 6, 35, 48)         192       
_________________________________________________________________
conv2d_5 (Conv2D)            (None, 4, 33, 64)         27712     
_________________________________________________________________
batch_normalization_6 (Batch (None, 4, 33, 64)         256       
_________________________________________________________________
flatten_1 (Flatten)          (None, 8448)              0         
_________________________________________________________________
dense_1 (Dense)              (None, 100)               844900    
_________________________________________________________________
dense_2 (Dense)              (None, 50)                5050      
_________________________________________________________________
dense_3 (Dense)              (None, 10)                510       
_________________________________________________________________
dense_4 (Dense)              (None, 1)                 11        
=================================================================
Total params: 918,183
Trainable params: 917,827
Non-trainable params: 356
_________________________________________________________________
None
Epoch 1/100
330/330 [==============================] - 60s 182ms/step - loss: 0.0345 - val_loss: 0.0765

Epoch 00001: val_loss improved from inf to 0.07652, saving model to model.hdf5
…
